CustomCNN-weights10.pth (torch, 156500 bytes, 8 tensors)

conv1.weight f4 [16, 1, 3, 3]
-0.7073539 -1.9451715 -1.2827802 0.7081987 -0.7248239 0.50690126 0.54023224 -0.0106376605
0.48676598 0.042440772 -0.08196847 -0.14655674 -0.23906514 0.3065989 -0.1201967 0.122088835
-0.06420612 -0.2478048 0.49236307 0.12121107 -0.07800159 0.68934935 -0.005096801 0.401834
-0.5825989 -0.732288 -0.32630277 -0.561172 0.26634455 -0.2622791 0.52915704 0.12749712
-0.76736665 0.28686476 0.47477812 0.05511604 -0.0008999921 0.21946922 -0.81840974 -0.10193457
0.7033739 0.55739826 -0.46513498 0.007211288 0.08206228 -0.2154543 -0.79382414 -0.5447761
0.8346973 0.4074152 -0.3934657 0.26768592 0.13389464 0.02501138 -0.14134945 -0.7053786
-0.7166856 0.740788 0.5799188 1.1061548 -0.73573804 -0.85631883 0.01467357 0.45473185
-0.022031445 -0.3161655 0.84949887 -0.21921566 0.44971254 -0.38058633 0.14189887 0.8701192
0.47912884 -0.07330828 -0.8681818 -0.4964425 0.63009375 0.4235306 -0.013172594 0.49532196
0.28295097 0.6842113 0.12838982 0.47256014 -1.2336636 -1.1570836 0.27473354 0.034243546
0.52285355 -0.12731758 0.30883095 -0.36999688 0.327895 -0.66398215 -0.10374287 0.5709023
-0.16178136 -0.08442265 0.5298908 -0.439984 0.42063135 0.5245058 -0.6922762 -0.036528237
-0.62800914 0.23579796 0.533634 -0.13152431 -0.1702586 -0.8507067 -0.24721059 -0.04553146
0.6386505 0.8427114 0.22248381 0.48672587 -0.577098 0.37636885 -0.033955324 -0.4395757
0.09838767 -0.060149413 -0.30860177 0.34162682 0.7296708 0.5003105 0.20696415 0.17430829
-0.6438065 0.44470283 -0.2562282 -1.8935045 0.63812894 -0.73959875 -0.63651556 0.20403068
0.41127625 0.7251428 -0.44414046 0.12551302 0.2175172 -0.6673436 -0.6582362 0.21409793
00000000: 2515 35bf 61fb f8bf 2432 a4bf 834c 353f
00000010: 0f8e 39bf 48c4 013f a94c 0a3f 9549 2ebc
00000020: 6439 f93e 60d6 2d3d 16df a7bd f812 16be
00000030: 7ecd 74be 88fa 9c3e b029 f6bd b609 fa3d
00000040: 807e 83bd 8bc0 7dbe 0317 fc3e 823d f83d
00000050: 4cbf 9fbd 3379 303f 1103 a7bb 30bd cd3e
00000060: 3425 15bf 3a77 3bbf 2811 a7be f8a8 0fbf
00000070: 505e 883e 7249 86be d676 073f 9b8e 023e
00000080: 2472 44bf f0df 923e 1e16 f33e 5bc1 613d
00000090: 73ed 6bba 8abc 603e 4d83 51bf 12c3 d0bd
000000a0: 5010 343f a7b1 0e3f 2c26 eebe ab4c ec3b
000000b0: 4510 a83d 0da0 5cbe 0f38 4bbf 7276 0bbf
000000c0: b9ae 553f ba98 d03e 5674 c9be 210e 893e
000000d0: ad1b 093e aae4 cc3c e9bd 10be b193 34bf
000000e0: b578 37bf 48a4 3d3f 8f75 143f 7b96 8d3f
000000f0: 5459 3cbf b637 5bbf 6a69 703c 9dd2 e83e
00000100: 4a7b b4bc 72e0 a1be c278 593f 127a 60be
00000110: b940 e63e 36dc c2be f04d 113e 22c0 5e3f
00000120: 6050 f53e a722 96bd 2a41 5ebf b62d febe
00000130: d34d 213f 01d9 d83e ddd1 57bc d79a fd3e
00000140: f3de 903e 7928 2f3f 9f78 033e 67f3 f13e
00000150: b0e8 9dbf 511b 94bf e0a9 8c3e f642 0c3d
00000160: bbd9 053f 8a5f 02be 171f 9e3e 3b70 bdbe
00000170: dae1 a73e bcfa 29bf 2477 d4bd a726 123f
00000180: 03aa 25be c8e5 acbd eca6 073f 9545 e1be
00000190: fe5c d73e 0346 063f 0339 31bf a29e 15bd
000001a0: 35c5 20bf 0575 713e 3d9c 083f 4fae 06be
000001b0: 4558 2ebe eac7 59bf c624 7dbe 327f 3abd
000001c0: 997e 233f efbb 573f ccd2 633e 2234 f93e
000001d0: b2bc 13bf 6bb3 c03e bd14 0bbd 1110 e1be
000001e0: 7a7f c93d 3b5f 76bd 0d01 9ebe b6e9 ae3e
000001f0: b5cb 3a3f 5914 003f 69ee 533e df7d 323e
00000200: 81d0 24bf 17b0 e33e 5830 83be 5b5e f2bf
00000210: 6b5c 233f 5856 3dbf aff2 22bf 6bed 503e
00000220: cd92 d23e f5a2 393f 6166 e3be 7c86 003e
00000230: d4bc 5e3e 08d7 2abf 2b82 28bf 7d3c 5b3e

conv1.bias f4 [16]
0.19130424 -0.31448472 0.04245651 0.12541264 0.02407373 0.12862715 0.20358531 -0.06767759
-0.017626286 0.067449495 -0.10101504 0.07858669 0.03623346 -0.10087659 0.11039046 0.023267632
00000000: 42e5 433e 2404 a1be e1e6 2d3d 2c6c 003e
00000010: 4536 c53c d6b6 033e ab78 503e 8c9a 8abd
00000020: 0065 90bc f622 8a3d f9e0 cebd 0ff2 a03d
00000030: 8969 143d 6398 cebd 6514 e23d c39b be3c

conv2.weight f4 [32, 16, 3, 3]
-0.08693479 -0.0062806704 0.04547929 0.02895464 0.0009343261 0.024963062 0.03530221 0.00095399184
0.015027186 0.04290721 -0.08148043 0.023365568 0.06838098 0.04472549 -0.04123653 0.048608433
0.046294414 -0.08068209 -0.031788923 -0.03431187 0.048542272 -0.0023044394 -0.050045814 -0.019898426
-0.065187864 0.01734866 0.064616345 -0.08185872 -0.05961925 -0.067418315 0.024874633 0.04277653
-0.023723364 -0.030320717 -0.06502012 -0.014833521 0.061097965 -0.018224215 0.035957824 -0.025345208
0.008193766 -0.078284785 0.028146645 -0.035365887 0.023749325 0.042049594 -0.06943489 0.045539293
0.03343744 -0.025876757 -0.055920996 -0.058875572 -0.05567576 -0.008684056 -0.038203698 0.03641333
0.022824327 -0.016379239 -0.007541903 0.014265782 -0.0015875649 -0.022375792 0.00040916554 0.06346591
0.037682347 0.0059006023 -0.023612985 -0.09401505 -0.064619735 0.055766102 -0.0825875 -0.07182678
-0.01536663 -0.077473566 -0.038493883 -0.08203933 -0.02653051 -0.04473972 0.011288256 -0.016646093
-0.07505573 0.06847933 0.026578207 -0.03825088 0.011579035 -0.077099524 -0.0092029385 0.040215503
-0.05177439 0.0010988716 -0.017618656 -0.035508458 -0.089671716 -0.059832312 0.008763832 -0.0037227597
-0.027915327 -0.031396158 -0.041290194 0.039741863 -0.020432094 -0.07893319 -0.11512836 -0.060424533
-0.10915379 0.00036804672 -0.021037621 -0.08820896 0.044512548 0.048833266 0.031621672 0.046025243
0.044670235 0.024716502 0.052334428 -0.064048894 0.036282815 -0.066838674 -0.11322745 0.019037986
0.07004227 -0.06434726 -0.024132533 0.0172987 -0.052639857 0.007854122 -0.08721934 -0.019565802
0.031376008 0.0010503627 -0.090367354 0.046178058 0.043528613 -0.052861135 -0.07662769 -0.09319288
0.012069854 -0.04285956 -0.01757695 -0.002804933 0.0042410446 -0.026978282 -0.0814651 -0.09361466
0.24617805 -0.05320808 -0.038629077 -0.5011484 -0.084302075 0.23056582 0.07891943 0.20436983
-0.1304939 0.036252856 -0.030483197 0.0009455681 -0.0059138043 0.05765474 0.08220212 -0.06897062
-0.035916638 0.07013737 0.06892288 0.02500173 -0.010459631 0.09546686 0.10035055 0.043077257
-0.15696362 -0.45023134 -0.5527937 0.24964878 0.29568845 0.007466578 -0.13531008 -0.6116991
-0.57207954 0.18005386 0.15562277 0.035388585 -0.03250974 -0.15888248 0.06571556 -0.31414866
0.09292236 -0.060785145 -0.14507748 -0.8287615 -0.374369 0.26676962 -0.018727273 -0.099238046
-0.19596359 -0.16310725 0.003753173 0.06485144 0.00873764 -0.29539922 0.41866767 0.22379655
0.042361032 -0.05283203 0.18057093 0.35160437 0.0067591355 -0.5679619 -0.80813175 -0.17305984
-0.050825484 0.07681635 -0.4477126 -0.23786464 -0.17040096 -0.018789746 -0.120990045 0.07465319
-0.19870308 -0.20801792 -0.009300613 -0.47501054 -0.24470606 -0.17832877 0.0013090669 -0.28805432
-0.06137166 -0.008631334 -0.24329479 -0.2249897 0.27608198 0.0832793 -0.0210935 0.10599029
0.15811737 0.2700249 0.085976265 0.09190947 -0.11261373 -0.1817242 -0.30313516 -0.4260901
0.2599321 0.20870729 0.005555749 -0.4492908 -0.27718493 -0.095254414 0.1418871 -0.17877342
-0.1089378 0.31731635 0.38474688 0.41897446 0.056440607 -0.16499595 -0.07592615 -0.61751026
00000000: de0a b2bd 15ce cdbb 7e48 3a3d 4832 ed3c
00000010: 90ed 743a 567f cc3c 0d99 103d 4f15 7a3a
00000020: 9634 763c 78bf 2f3d 36df a6bd 2669 bf3c
00000030: 540b 8c3d 1332 373d a3e7 28bd a319 473d
00000040: 369f 3d3d a73c a5bd 1a35 02bd 9a8a 0cbd
00000050: 43d4 463d 1406 17bb d7fc 4cbd 0602 a3bc
00000060: 3781 85bd c71e 8e3c 9355 843d 8ba5 a7bd
00000070: 5133 74bd 9d12 8abd e3c5 cb3c 7136 2f3d
00000080: 8057 c2bc 2763 f8bc 4529 85bd 4c08 73bc
00000090: dc41 7a3d f34a 95bc 8348 133d c1a0 cfbc
000000a0: 253f 063c c653 a0bd cb93 e63c d2db 10bd
000000b0: f28d c23c 323c 2c3d e133 8ebd 6987 3a3d
000000c0: b2f5 083d 7efb d3bc 6a0d 65bd 8327 71bd
000000d0: 440c 64bd 9247 0ebc 7b7b 1cbd 2526 153d
000000e0: 15fa ba3c c12d 86bc 1122 f7bb 07bb 693c
000000f0: d715 d0ba 704d b7bc 4585 d639 6afa 813d
00000100: ce58 1a3d d759 c13b 0570 c1bc f68a c0bd
00000110: 5a57 84bd ff6a 643d a323 a9bd eb19 93bd
00000120: 51c4 7bbc 76aa 9ebd c3ab 1dbd 3c04 a8bd
00000130: 8356 d9bc ff40 37bd 61f2 383c 635d 88bc
00000140: d2b6 99bd e43e 8c3d 8aba d93c f4ac 1cbd
00000150: feb5 3d3c 5be6 9dbd ecc7 16bc 03b9 243d
00000160: 6211 54bd 0308 903a 0055 90bc 5171 11bd
00000170: cea5 b7bd ba12 75bd 2d96 0f3c 8bf9 73bb
00000180: afae e4bc 4299 00bd e81f 29bd 5dc8 223d
00000190: 3561 a7bc b9a7 a1bd 6bc8 ebbd b77f 77bd
000001a0: 068c dfbd 65f6 c039 1757 acbc e6a6 b4bd
000001b0: ca52 363d 6405 483d ba85 013d f784 3c3d
000001c0: 23f8 363d 437a ca3c a05c 563d 112c 83bd
000001d0: 4a9d 143d b7e2 88bd cbe3 e7bd 8df5 9b3c
000001e0: 5272 8f3d 7fc8 83bd 97b1 c5bc 01b6 8d3c
000001f0: e49c 57bd 93ae 003c 0ea0 b2bd 7648 a0bc
00000200: 2184 003d 53ac 893a 8512 b9bd 3425 3d3d
00000210: 0f4b 323d eb84 58bd faee 9cbd e9db bebd
00000220: a3c0 453c 828d 2fbd 89fd 8fbc f8d2 37bb
00000230: 76f8 8a3b 8f01 ddbc 2dd7 a6bd 0bb9 bfbd
00000240: 1916 7c3e b7f0 59bd 8639 1ebd 434b 00bf
00000250: 91a6 acbd 7219 6c3e 83a0 a13d 5346 513e
00000260: 31a0 05be e07d 143d e6b7 f9bc 00e0 773a
00000270: 96c8 c1bb 6027 6c3d 9659 a83d 7840 8dbd
00000280: 531d 13bd 2ea4 8f3d 7027 8d3d 6ed0 cc3c
00000290: df5e 2bbc 2184 c33d 9784 cd3d c771 303d
000002a0: 12bb 20be b984 e6be e383 0dbf eea3 7f3e
000002b0: 7a64 973e 32aa f43b ba8e 0abe 5098 1cbf
000002c0: ce73 12bf 0a60 383e 935b 1f3e 9ff3 103d
000002d0: ef28 05bd 17b2 22be e195 863d 18d8 a0be
000002e0: 144e be3d d8f9 78bd 318f 14be b729 54bf
000002f0: 4bad bfbe 0796 883e f069 99bc 513d cbbd
00000300: aeaa 48be 9605 27be cbf7 753b d5d0 843d
00000310: 5228 0f3c 913e 97be 9c5b d63e ec2a 653e
00000320: c382 2d3d 6666 58bd 96e7 383e 7d05 b43e
00000330: bd7b dd3b f365 11bf b9e1 4ebf 9936 31be
00000340: 622e 50bd e451 9d3d 963a e5be ca92 73be
00000350: 977d 2ebe f4ec 99bc a1c9 f7bd c6e3 983d
00000360: d278 4bbe a602 55be 9961 18bc 9534 f3be
00000370: 3a94 7abe d19b 36be ff94 ab3a db7b 93be
00000380: da60 7bbd 706a 0dbc 4522 79be b363 66be
00000390: 9e5a 8d3e 568e aa3d 47cc acbc 7011 d93d
000003a0: 85e9 213e b440 8a3e 5314 b03d 083b bc3d
000003b0: 07a2 e6bd e915 3abe 8834 9bbe 7b28 dabe
000003c0: d215 853e 5db7 553e 000d b63b 7209 e6be
000003d0: 2feb 8dbe bf14 c3bd da4a 113e 6110 37be
000003e0: c81a dfbd 4a77 a23e 8bfd c43e d283 d63e
000003f0: 442e 673d b3f4 28be 2b7f 9bbd 2715 1ebf

conv2.bias f4 [32]
-0.068228856 0.13066669 0.0011747973 0.1234087 -0.103083216 -0.10691426 0.19006722 0.028463056
0.014031993 0.12012214 -0.011730907 0.00026981373 -0.056210898 0.18481973 -0.0935177 -0.03780451
-0.024977615 0.2639298 0.18611039 0.07291733 0.19152315 -0.083420634 0.26299524 -0.0021724156
-0.08639951 0.3656492 0.025649017 0.1562785 0.044337966 -0.10735978 0.28457096 0.08938555
00000000: 92bb 8bbd 7dcd 053e a8fb 993a b3bd fc3d
00000010: 4b1d d3bd ddf5 dabd fba0 423e 5b2b e93c
00000020: 72e6 653c 9902 f63d fd32 40bc c975 8d39
00000030: 663d 66bd 6241 3d3e 3586 bfbd e7d8 1abd
00000040: db9d ccbc cf21 873e b993 3e3e ae55 953d
00000050: a51e 443e 70d8 aabd 50a7 863e 165f 0ebb
00000060: 3af2 b0bd 5f36 bb3e e31d d23c 7907 203e
00000070: ba9b 353d 72df dbbd 49b3 913e c50f b73d

fc1.weight f4 [64, 512]
-0.01697739 0.021861741 -0.013086585 0.009162878 -0.037126005 0.026210481 -0.0067321425 -0.043072183
0.023680327 0.0176281 -0.026884962 -0.019800393 -0.0031821618 0.028024986 0.048497695 0.02969253
0.062011916 0.09659609 0.096591115 -0.0025885594 0.095611125 -0.0031273724 -0.011749414 0.09693429
0.2924671 0.35657412 0.14011347 -0.34752184 0.010760562 -0.037024662 -0.09724563 0.050456125
0.1792678 -0.3252458 0.2789338 -0.24901582 -0.18254976 -0.17959487 0.015087103 -0.4288698
-0.37075534 -0.26322284 0.17455018 -0.124846436 -0.004053147 -0.11972509 0.2049497 0.12989628
0.03146613 0.04478532 -0.020216912 -0.10607236 -0.16302928 -0.13104035 -0.106667206 0.025219314
0.026006605 -0.28912696 -0.021327563 0.16645607 0.17788216 0.10454626 0.04936926 0.031414878
-0.1102101 0.16094875 0.34731355 0.08034923 -0.105911024 -0.059326973 0.24176875 0.013889013
-0.12371082 -0.06341213 0.22230831 0.20530559 0.019523446 0.15161718 -0.116271704 -0.24921207
-0.029267833 -0.037602466 0.02557192 -0.025386585 0.033851862 0.024552777 0.02271146 0.012042931
-0.026082516 0.03982366 0.008563686 -0.016917938 -0.04700838 -0.06644842 0.006072547 0.008421411
0.13350222 0.05758348 -0.016585344 0.043889575 0.07762515 -0.14519249 -0.20628268 0.12619172
-0.11236864 -0.002207915 -0.14068602 -0.103935584 0.276063 -0.045954414 0.03937424 -0.1138536
-0.062644236 -0.07639183 0.02623164 -0.027407689 -0.31730744 -0.06597683 0.054412145 -0.11681552
-0.4361795 0.04305426 0.04407145 -0.02452571 -0.12383914 0.2757104 0.027160853 0.051569954
0.064779125 0.15543899 0.094585694 0.038385745 -0.36423257 -0.030356785 -0.032483406 -0.1876034
0.24968928 -0.010519344 -0.042244136 0.069309235 -0.045897547 0.19713421 0.04864011 -0.38375244
0.022360073 0.011739824 -0.08582612 -0.05790782 -0.0687097 -0.112025484 -0.12341825 -0.02683836
0.04063031 -0.10114524 -0.11401896 -0.05916897 0.7033037 -0.02952894 0.014992842 0.10612296
-0.29295602 -0.19922699 0.123158045 -0.4108043 0.031962298 -0.4216871 -0.032989066 -0.3745985
-0.35543385 -0.27470303 -0.108930044 -0.2219628 -0.5886842 -0.09949339 0.088281736 0.19586368
-0.25761205 -0.08990006 0.020039095 -0.058388315 -0.08204312 -0.14481534 0.09122418 0.016001638
0.35465202 0.26520753 0.24380527 0.047168408 0.10764721 0.027488021 0.0091431765 -0.136033
0.10357225 0.21031183 0.16788054 0.0579633 -0.18757525 0.07900574 0.01709268 -0.12220405
-0.10073232 -0.26372027 0.14229985 0.1117901 -0.021719282 -0.024552168 -0.037574764 -0.025847575
-0.092761055 0.088106595 0.030727787 -0.13136962 -0.13952447 -0.08863905 -0.029016169 0.010558538
-0.26090863 -0.3761813 -0.10676189 0.045583706 0.37418324 0.09880436 -0.0055197235 0.011143682
0.021555495 0.005373528 -0.037624065 -0.023321005 0.007924645 0.040427294 -0.010173285 -0.0074252053
-0.036755517 0.013368833 0.036827784 0.016745811 0.034868576 -0.037382238 -0.01129142 -0.00849711
-0.047149252 0.11995953 0.071745105 -0.100717634 -0.32731333 -0.045093454 -0.44378114 -0.05564067
-0.13675675 0.1927012 -0.14672169 0.3900399 -0.37373316 0.050319914 0.3006419 0.27231756
00000000: 2b14 8bbc 6517 b33c 1e69 56bc e51f 163c
00000010: 7011 18bd 5db7 d63c 4e99 dcbb 756c 30bd
00000020: 3ffd c13c ce68 903c da3d dcbc 6f34 a2bc
00000030: d18b 50bb a894 e53c 85a5 463d c03d f33c
00000040: 3500 7e3d 2cd4 c53d 90d1 c53d d2a4 29bb
00000050: c4cf c33d 9af4 4cbb 9d80 40bc 7c85 c63d
00000060: 3fbe 953e e290 b63e e879 0f3e 62ee b1be
00000070: 114d 303c 2ca7 17bd b828 c7bd 15ab 4e3d
00000080: fa91 373e 9e86 a6be 69d0 8e3e 01fe 7ebe
00000090: 53ee 3abe b8e7 37be e52f 773c d394 dbbe
000000a0: a5d3 bdbe 25c5 86be 48bd 323e 7daf ffbd
000000b0: 43d0 84bb 6e32 f5bd 56de 513e 8803 053e
000000c0: a1e2 003d d070 373d f09d a5bc 773c d9bd
000000d0: 26f1 26be 712f 06be 5674 dabd bc98 ce3c
000000e0: ce0b d53c 7308 94be 24b7 aebc 7673 2a3e
000000f0: be26 363e 591c d63d 6c37 4a3d e3ac 003d
00000100: d5b5 e1bd c0cf 243e 15d3 b13e 238e a43d
00000110: e1e7 d8bd d700 73bd 3a92 773e be8e 633c
00000120: 195c fdbd 38de 81bd caa4 633e a13b 523e
00000130: a2ef 9f3c 8941 1b3e dc1f eebd 7331 7fbe
00000140: 18c3 efbc 0b05 1abd 347c d13c 87f7 cfbc
00000150: 40a8 0a3d e822 c93c 620d ba3c b74f 453c
00000160: 00ab d5bc 221e 233d b44e 0c3c 7d97 8abc
00000170: dc8b 40bd 1c16 88bd 37fc c63b f5f9 093c
00000180: ceb4 083e a8dc 6b3d fddd 87bc 8ec5 333d
00000190: eff9 9e3d 57ad 14be c43b 53be 6738 013e
000001a0: 8821 e6bd abb2 10bb ff0f 10be 2edc d4bd
000001b0: 2158 8d3e b23a 3cbd e246 213d 142c e9bd
000001c0: 9f4b 80bd 5273 9cbd bce3 d63c 1786 e0bc
000001d0: 1f76 a2be dc1e 87bd 45df 5e3d fa3c efbd
000001e0: eb52 dfbe aa59 303d 4484 343d 24ea c8bc
000001f0: 609f fdbd ea29 8d3e 7080 de3c 043b 533d
00000200: ebaa 843d 662b 1f3e 25b6 c13d 5f3a 1d3d
00000210: b17c babe cbae f8bc 520d 05bd 1b1b 40be
00000220: 8cae 7f3e 5459 2cbc 3008 2dbd 00f2 8d3d
00000230: 11ff 3bbd 8ddd 493e da3a 473d 337b c4be
00000240: 792c b73c 6458 403c 9bc5 afbd c030 6dbd
00000250: acb7 8cbd 9e6d e5bd b5c2 fcbd 1fdc dbbc
00000260: f86b 263d 3c25 cfbd c682 e9bd 295b 72bd
00000270: b60b 343f ade6 f1bc 8aa4 753c ff56 d93d
00000280: 55fe 95be 2902 4cbe 493a fc3d f154 d2be
00000290: e6ea 023d 5fe7 d7be 8b1f 07bd 60cb bfbe
000002a0: 6dfb b5be e0a5 8cbe b716 dfbd 374a 63be
000002b0: 02b4 16bf 31c3 cbbd 0ecd b43d 7d90 483e
000002c0: bae5 83be 861d b8bd 0729 a43c 9628 6fbd
000002d0: 3906 a8bd 794a 14be bed3 ba3d de15 833c
000002e0: f394 b53e 48c9 873e 17a8 793e a933 413d
000002f0: 2476 dc3d 8f2e e13c 43cd 153c 3c4c 0bbe
00000300: b01d d43d fc5b 573e e0e8 2b3e ed6a 6d3d
00000310: ba13 40be c3cd a13d f305 8c3c 1e46 fabd
00000320: bf4c cebd 5806 87be 0db7 113e 35f2 e43d
00000330: a3ec b1bc a121 c9bc ffe7 19bd 4bbe d3bc
00000340: 82f9 bdbd 3b71 b43d d7b8 fb3c c285 06be
00000350: 81df 0ebe 6488 b5bd 51b3 edbc b8fd 2c3c
00000360: d195 85be d69a c0be faa5 dabd fbb5 3a3d
00000370: f294 bf3e f159 ca3d ccde b4bb fd93 363c
00000380: 2695 b03c 6c14 b03b b11b 1abd b10b bfbc
00000390: 5fd6 013c 1797 253d daad 26bc 234f f3bb
000003a0: f48c 16bd f308 5b3c bbd8 163d 832e 893c
000003b0: 5ad2 0e3d 1e1e 19bd a6ff 38bc 7637 0bbc
000003c0: 931f 41bd 58ad f53d 19ef 923d 0c45 cebd
000003d0: 9d95 a7be eab3 38bd 4837 e3be 79e7 63bd
000003e0: f609 0cbe 7753 453e 363e 16be 4fb3 c73e
000003f0: f459 bfbe 411c 4e3d bced 993e 356d 8b3e

fc1.bias f4 [64]
0.08921639 0.18338014 0.05236306 -0.019733535 0.0033767265 0.05571061 0.14069863 -0.06489518
-0.057674278 0.07432829 -0.13695082 0.0044167233 -0.06561465 0.05097494 -0.024865158 0.18901017
0.03451084 -0.011399069 -0.20704693 0.11689936 0.12486292 -0.057701744 -0.028968085 0.11041991
0.14045134 0.10672936 0.2905309 0.2442563 0.09371042 0.019539988 0.107382536 0.0021603603
0.1846445 -0.016752092 0.16155697 0.17781132 0.08189535 -0.06981939 0.18622638 0.3399656
-0.0670799 -0.06966319 0.20229347 0.2610084 0.028116172 -0.027849454 -0.12751618 -0.04953963
0.01869283 0.25549468 0.089485645 0.102225184 0.18341458 0.13649921 0.12323893 0.051808983
-0.039332125 -0.037205037 -0.10578235 -0.06852849 -0.07353324 0.16354656 0.011955556 0.04410312
00000000: 15b7 b63d 01c8 3b3e a67a 563d 39a8 a1bc
00000010: 124c 5d3b cf30 643d 4d13 103e c4e7 84bd
00000020: dd3b 6cbd 6e39 983d d63c 0cbe 29ba 903b
00000030: f960 86bd 19cb 503d 04b2 cbbc e28b 413e
00000040: 3d5b 0d3d 29c3 3abc 1c04 54be ef68 ef3d
00000050: 21b8 ff3d aa58 6cbd 7a4e edbc d523 e23d
00000060: 7ad2 0f3e ec94 da3d 77c0 943e 531e 7a3e
00000070: 40eb bf3d 5312 a03c 60eb db3d d594 0d3b
00000080: 7313 3d3e af3b 89bc 316f 253e 2c14 363e
00000090: c0b8 a73d 78fd 8ebd 21b2 3e3e f90f ae3e
000000a0: 3061 89bd 93ab 8ebd 0526 4f3e e5a2 853e
000000b0: e353 e63c 8a24 e4bc 9a93 02be 11ea 4abd
000000c0: b521 993c 33d0 823e 4044 b73d 705b d13d
000000d0: 08d1 3b3e 73c6 0b3e b164 fc3d a835 543d
000000e0: b91a 21bd 4f64 18bd 6ba4 d8bd aa58 8cbd
000000f0: 9898 96bd c078 273e 3de1 433c 79a5 343d

fc2.weight f4 [10, 64]
-0.8506095 0.167791 0.19491991 -0.07707036 0.10100614 -0.4863991 0.17414759 -0.35462773
-0.5867684 0.23358463 -0.6674468 -0.179643 -0.71447176 0.20689552 -0.09968427 0.29041862
-0.17849499 -0.06025467 -0.60752165 -0.527086 0.21125671 0.19111009 0.13274774 0.16996314
-0.48508948 0.23591432 0.26745394 -0.12480626 -0.5208187 -0.2104463 0.098934814 0.07042285
0.21095124 -0.048885085 -0.58232963 -0.28722078 -0.5389797 -0.42970568 -0.84681976 -0.008128304
-0.38123825 -0.03426736 0.23238555 0.05934601 -0.25567538 0.2795873 -0.470578 0.26430836
-0.046273842 -0.0778468 -0.8700986 -0.8366048 -0.38569698 -0.43322894 0.17922616 -1.0086838
-0.4815854 -0.06806302 -0.43282625 0.06268681 -0.89288753 -0.45903265 0.21572892 0.23665163
0.21727228 -0.7045978 -0.61853653 0.100658156 -0.51588804 0.24468239 -0.725969 0.27156815
-0.1520252 0.2058104 -0.2075473 -0.18795945 -0.31752333 0.11640298 -0.05132201 0.1965024
-0.7247229 -0.30644032 0.1585445 -0.48352876 -0.71527034 -0.6273451 0.19985646 -0.3712569
-0.48828015 -0.519114 0.2783711 0.16069882 0.07914567 0.20878384 0.05550124 -0.61004245
0.107407674 0.10101934 0.2788862 0.27925315 -0.22843944 -0.39122653 0.24193375 -0.6137219
0.31298724 -0.037973024 0.23986809 0.037887037 -0.21200334 -0.2865591 0.23448983 -0.38156617
-0.080880724 0.20119789 -0.34233925 0.0857618 -0.39462122 0.30766788 0.10275486 0.091718026
-0.60894316 -0.045956574 -0.34975624 -0.023472667 0.2285726 0.05755089 0.35920992 -0.4514532
-0.45691442 0.16813134 0.05326245 -0.020952865 -0.1705386 0.30732164 -0.3186162 -0.24737442
0.16173728 -0.342824 -0.35215238 0.11805278 -0.10382346 0.25370675 -0.049824916 0.14798944
0.25179467 0.1659214 0.12541203 -0.59267884 -0.3216851 -0.5405318 0.14223032 0.00012565494
-0.17906591 0.17557067 -0.5522793 0.20865437 0.16691981 0.2007607 -0.4822619 0.067931615
-0.5401357 -0.12774968 -0.3434027 -0.5641578 -0.28661454 0.16717732 -0.44648272 -0.15295689
0.2385472 0.05590329 -0.28974032 0.14455979 -0.515009 0.26055247 0.1260353 -0.15879606
-0.0016670205 -0.2766286 -0.23120871 0.1252821 0.20356213 -0.35411373 0.15247703 -0.42324203
-0.3763365 -0.014601932 0.11761541 -0.15270063 0.19236924 0.11265351 -0.2571682 -0.4624577
0.19730397 -0.16371973 0.16035074 -0.11349123 -0.33945477 -0.32357535 0.17897941 -0.1886008
0.12499511 -0.5030854 0.16507323 0.023993736 -0.15497282 -0.3085394 0.081344716 -0.45396766
-0.19026704 0.19741976 0.17761718 0.2179367 -0.49001706 -0.39820275 -0.488434 0.16331604
-0.21670727 -0.36356473 -0.41124862 0.16764963 0.13206613 -0.31189218 0.10002165 -0.03362249
-0.38257495 -0.08248466 -0.6003777 -0.48172632 -0.09172228 -0.14907756 0.06761826 0.2776675
-0.25686628 -0.035298686 -0.33060637 0.13855778 -0.4360668 0.21623817 0.178407 0.1925042
-0.06907173 -0.3868805 -0.14399254 -0.31390822 0.0637055 -0.40942398 -0.39312398 0.15647934
0.11450785 -0.0068495 -0.20286612 0.051486682 0.20321101 0.10323492 -0.2550522 -0.4555998
00000000: 8bc1 59bf 67d1 2b3e 1699 473e 11d7 9dbd
00000010: 4fdc ce3d 4e09 f9be bf53 323e c491 b5be
00000020: 7436 16bf cf30 6f3e cbdd 2abf 56f4 37be
00000030: 9fe7 36bf 6bdc 533e 4427 ccbd c0b1 943e
00000040: 64c7 36be 9acd 76bd 8a86 1bbf 1cef 06bf
00000050: ae53 583e 5db2 433e 06ef 073e d10a 2e3e
00000060: a65d f8be 8693 713e b9ef 883e 6d9a ffbd
00000070: 6054 05bf 3c7f 57be 569e ca3d db39 903d
00000080: 9a03 583e ba3b 48bd 8e13 15bf 9a0e 93be
00000090: 93fa 09bf 6202 dcbe 2ec9 58bf 942c 05bc
000000a0: a931 c3be ee5b 0cbd 7af6 6d3e cd14 733d
000000b0: e2e7 82be 1126 8f3e 9aef f0be 6d53 873e
000000c0: a489 3dbd 256e 9fbd c8be 5ebf bb2b 56bf
000000d0: 137a c5be 2fd0 ddbe 1087 373e 8d1c 81bf
000000e0: 5d92 f6be a064 8bbd 679b ddbe f161 803d
000000f0: 4794 64bf 5406 ebbe 0be8 5c3e ce54 723e
00000100: a07c 5e3e 8560 34bf 6958 1ebf dd25 ce3d
00000110: 3d11 04bf 058e 7a3e 1bd9 39bf fb0a 8b3e
00000120: 7eac 1bbe f6bf 523e 4887 54be 7178 40be
00000130: 6b92 a2be b064 ee3d 0737 52bd ed37 493e
00000140: 7187 39bf bfe5 9cbe 7d59 223e 1591 f7be
00000150: f51b 37bf b099 20bf 2ca7 4c3e 6215 bebe
00000160: dbff f9be a8e4 04bf a886 8e3e 3b8e 243e
00000170: 2017 a23d 6ecb 553e 4555 633d be2b 1cbf
00000180: 8ef8 db3d 3ae3 ce3d 2cca 8e3e 45fa 8e3e
00000190: 07ec 69be d84e c8be 7bbd 773e e11c 1dbf
000001a0: dd3f a03e 9a89 1bbd fb9f 753e 702f 1b3d
000001b0: 6717 59be e0b7 92be 1a1e 703e a45c c3be
000001c0: cba4 a5bd d206 4e3e 1747 afbe e2a3 af3d
000001d0: cb0b cabe a586 9d3e 2471 d23d a9d6 bb3d
000001e0: b3e3 1bbf f63c 3cbd 4013 b3be c049 c0bc
000001f0: f00e 6a3e 7bba 6b3d 5dea b73e e024 e7be
00000200: b0f0 e9be 9f2a 2c3e ba29 5a3d 58a5 abbc
00000210: aca1 2ebe 4359 9d3e aa21 a3be b84f 7dbe
00000220: 759e 253e a186 afbe 514d b4be a8c5 f13d
00000230: 65a1 d4bd dae5 813e 3615 4cbd 8b8a 173e
00000240: 3beb 803e 4de7 293e 036c 003e cdb9 17bf
00000250: e9b3 a4be 4b60 0abf d3a4 113e 3ec2 0339
00000260: 0e5d 37be ccc8 333e 2d62 0dbf 7ea9 553e
00000270: 07ed 2a3e 3794 4d3e 08eb f6be bb1f 8b3d
00000280: 5546 0abf d0d0 02be 7bd2 afbe a56c 10bf
00000290: 24bf 92be 8830 2b3e 6299 e4be bba0 1cbe
000002a0: b845 743e d9fa 643d d858 94be 7b07 143e
000002b0: a1d7 03bf 2267 853e 660f 013e 6f9b 22be
000002c0: ed7f daba 44a2 8dbe fac1 6cbe f349 003e
000002d0: 9772 503e 654e b5be f022 1c3e 2eb3 d8be
000002e0: 2daf c0be f13c 6fbc 59e0 f03d 8e5d 1cbe
000002f0: 71fc 443e e2b6 e63d 8dab 83be 41c7 ecbe
00000300: 0d0a 4a3e 25a6 27be fc32 243e 176e e8bd
00000310: 04cd adbe abab a5be 6146 373e 9120 41be
00000320: 70fd ff3d 34ca 00bf f508 293e 838e c43c
00000330: 32b1 1ebe e0f8 9dbe 0f98 a63d 736e e8be
00000340: 5dd5 42be 6828 4a3e 47e1 353e cc2a 5f3e
00000350: 84e3 fabe 3be1 cbbe 0514 fabe 523c 273e
00000360: 83e8 5dbe 2825 babe 2e8f d2be 58ac 2b3e
00000370: 583c 073e 55b0 9fbe 27d8 cc3d bcb7 09bd
00000380: dde0 c3be b8ed a8bd 5ab2 19bf d5a4 f6be
00000390: e4d8 bbbd caa7 18be 717b 8a3d 6f2a 8e3e
000003a0: fa83 83be 5b95 10bd 3d45 a9be 17e2 0d3e
000003b0: 2644 dfbe 8a6d 5d3e 53b0 363e d21f 453e
000003c0: 7b75 8dbd 3315 c6be c872 13be 94b8 a0be
000003d0: 0778 823d 05a0 d1be 8c47 c9be 1f3c 203e
000003e0: 1783 ea3d c571 e0bb 23bc 4fbe b3e3 523d
000003f0: 8c16 503e d46c d33d 3496 82be 6144 e9be

fc2.bias f4 [10]
0.20330516 -0.06933802 -0.038824238 -0.07625036 -0.14129592 -0.16342817 -0.052050095 -0.2634949
0.5654381 -0.037432786
00000000: 3a2f 503e 1801 8ebd 2a06 1fbd 2629 9cbd
00000010: e1af 10be b759 27be 7b32 55bd cee8 86be
00000020: 8dc0 103f 1f53 19bd
