GMMMLP-weights-isotropic.pth (torch, 4492 bytes, 8 tensors)

layers.0.weight f4 [10, 2]
000000 d3 6a 31 bf 29 3a 53 3f 46 5b 1d bf bc 11 01 3f
       -0.69303626 0.8251062 -0.614674 0.50417686
000010 bc 71 e9 3e 9a f8 86 bf 6f 58 86 3e d7 2f 55 3f
       0.45594585 -1.0544617 0.26239344 0.8327612
000020 7b 40 42 be 24 f1 c2 3e b8 96 6a bf 8f 73 37 3f
       -0.1896991 0.380746 -0.9163623 0.71660703
000030 bc 94 0c bf e5 85 49 3f 2f 7d 7e 3f fd 0e ce be
       -0.5491445 0.7871993 0.99409765 -0.4024581
000040 8a 7c a4 3e 63 8a 09 bf 02 3e 7b 3e db 46 23 bf
       0.32126266 -0.53726786 0.24535373 -0.6377999

layers.0.bias f4 [10]
000000 4f a7 4b 3d eb b7 42 3e bd 37 60 be 71 49 77 3f
       0.049720105 0.19015472 -0.21896262 0.9659644
000010 84 67 00 3d 0a f2 ab 3e e6 27 39 be 24 bb ee bd
       0.03134872 0.335831 -0.18081626 -0.11656788
000020 b7 bd 3d be 0b d5 85 3e
       -0.18529402 0.261391

layers.2.weight f4 [10, 10]
000000 6f 1d cb be 28 f3 51 be 8e 95 8d be 59 00 8d bd
       -0.39670894 -0.20502913 -0.27653164 -0.06884832
000010 23 55 f1 3d 57 c8 0c bf 56 e7 d7 be aa 40 bc 3d
       0.11783817 -0.54993194 -0.42168683 0.09192021
000020 7b 4a ac bd 55 56 23 be c8 19 f4 be b9 70 2f bf
       -0.084126435 -0.15950902 -0.4767592 -0.68531376
000030 b1 16 02 3e da 01 81 3d 78 a4 17 bf 91 ab a2 be
       0.12703969 0.06299181 -0.59235334 -0.3177152
000040 01 d5 eb be 7a fb 02 3f b9 28 4f 3e 96 9b 6f 3e
       -0.46060947 0.5116497 0.20230378 0.23399195
000050 65 00 85 3e 36 66 07 3f b4 ee 9b be 8e 09 28 3f
       0.25976864 0.52890337 -0.30455554 0.6563958
000060 8f 9c 8e 3e c4 b9 33 3f 5e f7 1d 3f 5b 93 0a bf
       0.2785382 0.7020533 0.6170558 -0.54131097
000070 69 e7 e1 be e5 93 04 bf 0f 3d c1 be c1 7f 29 bf
       -0.44121864 -0.5178817 -0.37741897 -0.6621056
000080 27 3e d5 3e 4e 6e d6 3e b2 ac dd be 46 83 ff be
       0.4164898 0.4188103 -0.4329582 -0.4990484
000090 4d 22 1b bf 38 df c0 3d 86 21 e3 3e fe 4e 19 3f
       -0.60599214 0.094175756 0.44361514 0.5988616
0000a0 83 a7 0d bd 3a 7e bc bd 7e e1 b2 3e f0 d9 10 be
       -0.03458358 -0.09203763 0.34937662 -0.14145637
0000b0 7d 31 a8 be f8 16 14 3e 82 89 17 bf eb 70 e8 3e
       -0.32850257 0.14461887 -0.59194195 0.4539865
0000c0 e3 3f 1d 3f 8c 76 3b 3f e8 b9 c3 3c 3e d3 90 be
       0.6142561 0.73227763 0.023892358 -0.28286165
0000d0 70 8b 97 be 7e d3 fc 3d 92 ee 5b 3e e2 f9 07 be
       -0.2959857 0.123450264 0.21477726 -0.13278916
0000e0 31 ff fc 3c 8b 8c 06 bf db 67 f6 be 28 27 24 bf
       0.030883403 -0.525582 -0.4812611 -0.6412225
0000f0 cc 92 a8 be c0 ae 7e be 28 e2 bb 3e 2b ed 88 3e
       -0.32924497 -0.2487135 0.3669598 0.26743445
000100 aa 20 3c be 7c 45 8c be 98 83 88 be 56 77 23 3f
       -0.18371835 -0.27396762 -0.26662898 0.6385397
000110 02 a4 58 3e 06 26 24 3f 8f f6 85 be 86 f8 c7 3c
       0.21156314 0.6412052 -0.26164672 0.024410497
000120 bb 02 ff 3e 7d dd 8e 3e de 2f fe bd 9f 45 cb be
       0.4980677 0.27903357 -0.12411474 -0.39701554
000130 78 b5 2b bf 32 7e 01 3f 00 c7 ea 3c 20 a1 44 3e
       -0.67073774 0.50583184 0.028659344 0.1920209
000140 3d 35 34 bf b0 77 38 bf ae fc 25 3f da 2d 62 3e
       -0.70393735 -0.7205763 0.64838684 0.22087803
000150 61 23 d2 be 2e c0 90 be 3f 47 cd be 36 77 2e 3f
       -0.41042617 -0.2827162 -0.4009342 0.6815065
000160 41 43 01 3e b6 68 29 3f 45 be 63 bd da b1 da be
       0.12623312 0.661754 -0.055601377 -0.42713815
000170 2e bc 4d 3e 2f ff 38 3e 59 73 9d 3d 44 09 ec be
       0.20091316 0.18066095 0.076880164 -0.4610082
000180 bc 89 07 be b3 d3 99 3d a0 ab b0 3e 38 45 c9 3e
       -0.13236135 0.075110815 0.3450594 0.39310622

layers.2.bias f4 [10]
000000 ed 64 d1 bd 88 12 49 3e 61 dc ce 3e 23 5d 9b 3e
       -0.10224328 0.19635975 0.4040251 0.30344495
000010 ae 6a 30 be 88 34 d3 be 95 07 ea 3e 8f 7f e0 3e
       -0.17228195 -0.41251016 0.4570891 0.4384732
000020 70 20 c5 3e 37 39 f4 3e
       0.3850131 0.476999

layers.4.weight f4 [10, 10]
000000 6b 6e 02 be a2 4c 47 be ba 4d bb 3e 04 0d 43 bf
       -0.12737434 -0.19462827 0.36582738 -0.76191735
000010 77 66 49 be 60 8e bb 3d 65 dd dd be 11 bc 19 be
       -0.19667993 0.09158015 -0.43332973 -0.15013148
000020 06 1f 25 bf 36 4d f5 bd ab 9e 87 bd 8c e0 bd be
       -0.64500463 -0.119776174 -0.066220604 -0.37085378
000030 5c 95 e6 3e 23 ce ec be 9d 66 1f bf 78 84 ca be
       0.45035827 -0.4625102 -0.6226595 -0.3955419
000040 1b b8 86 3e 26 78 4f be 1e 9b d7 be e0 39 d6 be
       0.26312336 -0.20260677 -0.42110533 -0.4184103
000050 bf e2 f4 3d c3 28 16 3f e7 ba 4e be be e8 09 3f
       0.11957311 0.5865595 -0.20188485 0.5387076
000060 d2 d1 48 3e a8 ba 18 bd 8c 86 ef 3e 74 ac 26 3f
       0.1961129 -0.037287384 0.4678234 0.6510689
000070 87 be b2 3e 1f 0a 12 3e e6 bf 76 3d 18 3e 03 bf
       0.34910986 0.14261673 0.060241602 -0.5126662
000080 74 0b 3e 3f 12 a4 bb be 28 b3 a6 bd 24 92 ce bd
       0.74236226 -0.36648613 -0.0813964 -0.10086468
000090 ae bc 88 bd 7b 17 00 bd 49 81 40 be 1d b3 a0 be
       -0.06676613 -0.031272393 -0.18799318 -0.31386653
0000a0 cc 61 00 bf d1 31 c9 bd 0d a9 8f 3e f6 8a ac bd
       -0.50149226 -0.09823955 0.28058663 -0.08424942
0000b0 25 71 0d be 2b cf 8d be df 2e bd 3c 44 47 2d be
       -0.13812692 -0.2769712 0.023093639 -0.16921717
0000c0 4e 61 e5 be 48 e9 31 bf b0 88 3c 3e ac d2 ae 3e
       -0.448008 -0.69496584 0.18411517 0.34145105
0000d0 04 50 74 be 12 dd e8 3d 47 b9 37 3d 66 44 bd 3d
       -0.23858649 0.11370291 0.04485443 0.092415616
0000e0 63 65 14 be cf 4a 33 bd a9 21 de bd 5f 8e 1c be
       -0.14491801 -0.043772515 -0.10846264 -0.15288685
0000f0 5b d1 5f bd 35 9f 85 3e 43 e6 c5 be bc 33 87 3e
       -0.054643016 0.26098028 -0.38652238 0.26406658
000100 3d 93 a1 3d 73 73 c6 be 63 4e 2c 3f 24 88 dd 3e
       0.078894116 -0.38759956 0.6730711 0.4326793
000110 02 81 17 3f 74 56 1b 3f 6d 2c 0e 3e 9e 41 d5 3e
       0.59181225 0.6067879 0.13884135 0.41651624
000120 7c c4 1a bd ed 8b eb 3e 27 fb 21 3f a6 d3 ae be
       -0.03778504 0.46005192 0.63273853 -0.3414585
000130 8d 13 d1 3d ff 3d 7a 3e fd 57 1b 3f 82 ca 19 3e
       0.10208807 0.24437712 0.60681134 0.15018657
000140 4a 1f a6 be e6 66 bc be ee 63 0c 3f a1 a0 98 bd
       -0.32445747 -0.36797255 0.5483998 -0.074525125
000150 4e 80 62 3e b4 78 8c 3d 3f 0d e2 3c 8b 30 c7 be
       0.22119257 0.0685896 0.027594207 -0.38904223
000160 da fd c7 be cf 4f 88 be e4 79 3b be 61 8d 15 bf
       -0.3906086 -0.2662339 -0.18308216 -0.5841885
000170 a1 a7 c3 3e 83 ec bc be 62 49 0b bf ed b0 ae be
       0.38213828 -0.36899194 -0.5440885 -0.3411936
000180 72 2c ed 3c ee 3e 12 be c9 05 98 be 10 27 f9 be
       0.028951857 -0.14281818 -0.29691914 -0.48662615

layers.4.bias f4 [10]
000000 f2 ae 87 bc 4e e9 6b 3e 18 e5 62 3d 18 fd c2 3e
       -0.016562913 0.23038217 0.055394262 0.3808372
000010 4f 38 88 3e 47 99 76 3c 2e c5 6c 3e 20 61 7a be
       0.2660546 0.015051193 0.23122093 -0.24451113
000020 10 22 f8 3e 43 62 67 3e
       0.48463488 0.22596078

layers.6.weight f4 [2, 10]
000000 fc 46 37 3f 49 47 95 3e 4e 05 18 bf 3a 3a 5d 3e
       0.7159269 0.2915595 -0.59383094 0.21604243
000010 19 b3 b2 3e be 45 d3 3c 7b ab a1 be 10 30 02 bf
       0.34902266 0.025790092 -0.31576142 -0.5085459
000020 e6 3a ea 3e 2f 55 82 3e c1 7f c2 be 73 6a f8 be
       0.4574806 0.25455615 -0.37988093 -0.48518714
000030 08 57 b3 3e d6 8f 0e bf 3e 73 d0 be da 63 2d 3e
       0.35027337 -0.55688226 -0.40712923 0.16932622
000040 0c 94 24 3f 95 9b 8b 3e 8d 30 0c bf 8e 44 e7 be
       0.642884 0.27267137 -0.5476158 -0.4516949

layers.6.bias f4 [2]
000000 c1 4f 9d 3d 9a bc 9c be
       0.076812275 -0.30612642
