GMMMLP-weights-isotropic-4-components.pth (torch, 4968 bytes, 8 tensors)

layers.0.weight f4 [10, 2]
0	0xbe62a296	-0.22132334
1	0xbf724e50	-0.94650745
2	0x3f38c738	0.72178984
3	0xbf584c78	-0.8449168
4	0x3ee77493	0.45206127
5	0xbdf4aa36	-0.11946528
6	0xbf6d518a	-0.92702544
7	0xbf27e412	-0.6558238
8	0x3ea1279d	0.31475535
9	0xbf0b3946	-0.5438427
10	0x3f8fc4e2	1.1231959
11	0x3f699837	0.91247886
12	0xbf001fc8	-0.50048494
13	0xbf783947	-0.969624
14	0xbf9ca143	-1.2236713
15	0xbe941282	-0.2892037
16	0xbf5b881c	-0.8575456
17	0x3f2f1bac	0.684016
18	0xbf863241	-1.0484086
19	0xbf409551	-0.7522784

layers.0.bias f4 [10]
0	0x3f0f13ad	0.558894
1	0x3ee7d6fd	0.4528121
2	0xbf6474a7	-0.892405
3	0xbec46ed5	-0.38365808
4	0x3f0b8e80	0.5451431
5	0x3e877bb1	0.26461557
6	0x3ea13058	0.31482196
7	0x3e173786	0.14767274
8	0x3f6652e7	0.8997025
9	0xbe097fc6	-0.13427648

layers.2.weight f4 [10, 10]
0	0xbcd1d28a	-0.025613088
1	0xbe1e684c	-0.15469474
2	0xbf415ed8	-0.75535345
3	0x3e923076	0.28552598
4	0xbc8471da	-0.01616757
5	0xbe7ff6e4	-0.24996525
6	0x3e41a677	0.18911158
7	0x3ebc7d4d	0.36814347
8	0x3f48de14	0.78463864
9	0x3c64fa25	0.013975655
10	0x3f1df23a	0.61697733
11	0x3f664a3f	0.8995704
12	0xbbbc2c72	-0.005742603
13	0xbe321cef	-0.1739385
14	0x3f33570a	0.70054686
15	0x3e5d82f4	0.21631986
16	0x3ec0ae73	0.37633094
17	0x3c9dcb76	0.019262057
18	0xbea550ef	-0.3228831
19	0x3e0c267f	0.1368656
20	0x3cf16097	0.029465003
21	0x3e8465d7	0.25858948
22	0xbdaa1951	-0.0830561
23	0xbf1633c0	-0.58672714
24	0x3f6d66be	0.927349
25	0x3f19fa46	0.6014751
26	0xbe1472ae	-0.14496872
27	0xbec78e34	-0.3897568
28	0xbf0f0616	-0.5586866
29	0xbe6cff97	-0.23144375
30	0xbf17d142	-0.5930368
31	0xbe90d198	-0.28284907
32	0xbee70b92	-0.45126015
33	0xbf718c7e	-0.94355
34	0xbd851449	-0.0649801
35	0x3ee835b2	0.45353466
36	0xbe24726f	-0.16059278
37	0x3eb1347e	0.3461036
38	0x3f4fa7f3	0.81115645
39	0xbe62de3d	-0.2215509
40	0xbe923446	-0.28555506
41	0xbf6b923a	-0.9202
42	0x3ea9798f	0.33100554
43	0x3f1b8ad9	0.6075874
44	0xbf2c9f2c	-0.67430377
45	0xbf494fed	-0.7863758
46	0xbe7366b1	-0.23769642
47	0x3e9a4f6b	0.30138716
48	0xbf0b537d	-0.5442427
49	0x3cd91e67	0.026503755
50	0x3be6535d	0.0070289806
51	0x3f44872b	0.7676875
52	0xbe0ac825	-0.13552912
53	0xbf9c8ac2	-1.2229846
54	0x3ef45a22	0.47725016
55	0x3f5f0e0c	0.8713081
56	0xbe3d9afc	-0.18516153
57	0xbf666907	-0.9000401
58	0x3db12fee	0.0865172
59	0xbf788ea2	-0.9709264
60	0x3ec0339b	0.37539372
61	0x3ef87540	0.48526955
62	0xbe87e439	-0.26541308
63	0x3f721edf	0.94578356
64	0x3f2a072e	0.66417205
65	0xbeafa000	-0.34301758
66	0x3ed23538	0.41056228
67	0x3f47ed3b	0.7809636
68	0xbeb300c2	-0.34961516
69	0x3f2cc20c	0.6748359
70	0x3ef1fc2f	0.47262713
71	0xbf1f13c3	-0.6213953
72	0xbed8e794	-0.4236418
73	0x3ee70845	0.45123497
74	0xbd9fdf8b	-0.07806309
75	0xbf068484	-0.5254595
76	0x3e94810f	0.29004714
77	0x3f1bd9c4	0.6087916
78	0x3eef3444	0.46719563
79	0x3f7f0f4a	0.99632704
80	0x3f296a6c	0.6617801
81	0x3e910d9f	0.28330705
82	0xbeabfa92	-0.33589607
83	0x3f48dd70	0.78462887
84	0x3f259e8a	0.64695036
85	0xbef38d50	-0.4756875
86	0x3f02d612	0.51107895
87	0x3ee0c975	0.439037
88	0x3d313dc6	0.043271802
89	0x3f35ae80	0.7096939
90	0x3e804bd5	0.25057855
91	0xbecf3b70	-0.40475035
92	0xbf2b58e9	-0.6693254
93	0x3ecd1e3a	0.40062124
94	0x3ccef2f9	0.025262343
95	0xbed04f55	-0.40685526
96	0x3e299523	0.16560797
97	0x3f31706b	0.6931216
98	0x3f378476	0.71686494
99	0x3f201b54	0.625417

layers.2.bias f4 [10]
0	0x3eca7980	0.39545822
1	0x3c89080e	0.016727474
2	0x3f2e5432	0.6809722
3	0x3f1f9013	0.62329215
4	0xbf394b2b	-0.7238032
5	0x3eadf6dc	0.339774
6	0x3ddd7ba7	0.108146004
7	0x3e79c18c	0.24390239
8	0x3ebb5341	0.36586955
9	0x3d3cf314	0.046130255

layers.4.weight f4 [10, 10]
0	0xbed8eb3d	-0.42366973
1	0x3ec2c082	0.38037497
2	0x3e03f330	0.12885737
3	0xbf18e984	-0.59731317
4	0xbe0ecb0a	-0.13944641
5	0xbe85647c	-0.26053226
6	0x3f359ec3	0.70945376
7	0x3f0384fb	0.5137479
8	0x3f0517f5	0.5198968
9	0x3eafb93b	0.34321007
10	0x3d89e62d	0.06733356
11	0xbe7db4fd	-0.24776073
12	0x3ecb8aca	0.39754325
13	0x3ee3211f	0.44361207
14	0xbed6ec13	-0.41976985
15	0x3f281e99	0.6567169
16	0xbf7b56ac	-0.98179126
17	0xbf334b8b	-0.70037144
18	0xbede1164	-0.43372643
19	0xbe98c747	-0.29839537
20	0xbead73e2	-0.33877474
21	0x3f04503d	0.51684934
22	0x3ee3dd97	0.44504997
23	0xbf1b5b65	-0.6068633
24	0xbf02e41f	-0.51129335
25	0x3da63a97	0.08116644
26	0x3f3498b3	0.705455
27	0xbe0ddd0c	-0.13853854
28	0x3eb9938a	0.36245376
29	0xbe812b3c	-0.25228298
30	0xbdc822b6	-0.097722456
31	0x3f5a2491	0.85212046
32	0x3f1f42bd	0.6221121
33	0x3da09ac1	0.07842017
34	0xbf39b030	-0.72534466
35	0x3f485912	0.7826091
36	0x3c70f275	0.014706244
37	0xbec833f6	-0.39102143
38	0x3e1eff5a	0.15527096
39	0xbf7644c2	-0.96198666
40	0x3e15b7fd	0.14620967
41	0x3e513385	0.2042981
42	0x3e9ddb2a	0.3083127
43	0x3f54f9dd	0.8319376
44	0xbf5ae2c8	-0.8550229
45	0x3f1e34bd	0.6179922
46	0xbec52fa4	-0.3851291
47	0xbe8e9d4b	-0.2785438
48	0xbdb366c3	-0.087598346
49	0x3ed87653	0.42277774
50	0x3f08de8c	0.5346458
51	0xbea24f0f	-0.31700942
52	0xbedecdca	-0.4351638
53	0x3f1f8384	0.6231005
54	0xbdd34050	-0.10315001
55	0xbf0c7726	-0.54869306
56	0xbee81899	-0.45331267
57	0x3e9d1b8c	0.3068508
58	0xbd0eef61	-0.03489626
59	0x3eef24da	0.46707803
60	0x3f3c83fe	0.73638904
61	0xbd698a5b	-0.05701671
62	0xbf5ce2db	-0.86283654
63	0x3f254f77	0.6457438
64	0xbdf2038e	-0.11817084
65	0xbf408dcd	-0.7521637
66	0x3e47ba43	0.19504647
67	0x3f0059ce	0.5013703
68	0x3ef07b8d	0.46969262
69	0x3f4a643c	0.79059196
70	0xbf430199	-0.7617431
71	0x3f375b9d	0.71624166
72	0x3d6dcac7	0.05805471
73	0xbf45c6f6	-0.77256715
74	0xbe9372e2	-0.28798586
75	0xbe32a160	-0.17444372
76	0x3f31177a	0.6917645
77	0x3ebae5bd	0.365034
78	0x3e92bc6d	0.28659382
79	0x3f3a9641	0.7288552
80	0x3f11279d	0.5670107
81	0xbec0c6fe	-0.3765182
82	0x3e39dca7	0.18150578
83	0x3f0b856b	0.54500455
84	0xbe65c6b9	-0.22439088
85	0x3f0c6768	0.54845285
86	0xbf0259b1	-0.5091811
87	0x3e81e42c	0.25369394
88	0xbe95acf2	-0.2923351
89	0x3e8658d6	0.2623965
90	0x3a1f1567	0.0006068558
91	0xbd95c400	-0.07312775
92	0xbf680a60	-0.9064083
93	0xbf992827	-1.1965379
94	0x3f86812c	1.050817
95	0xbf7b42e8	-0.98148966
96	0x3f497d88	0.7870717
97	0x3f120131	0.5703307
98	0x3ef003ae	0.46877807
99	0x3d973221	0.07382608

layers.4.bias f4 [10]
0	0x3ea87e3e	0.32908815
1	0x3d2cf682	0.042227276
2	0x3ea08f9e	0.3135957
3	0x3ed07d88	0.40720773
4	0x3f0760b9	0.5288196
5	0xbcc871d6	-0.024468344
6	0x3ec0e8e7	0.3767769
7	0x3ee1ee3e	0.44127077
8	0x3e0d96ed	0.13827105
9	0xbf61dcf4	-0.8822777

layers.6.weight f4 [4, 10]
0	0xbf135980	-0.5755844
1	0xbf37081c	-0.7149675
2	0xbe7bb0e0	-0.24579191
3	0xbf171203	-0.5901186
4	0x3e77c6d0	0.24196935
5	0x3f3e8f2e	0.74437225
6	0x3f43def3	0.7651207
7	0xbea921fb	-0.33033738
8	0x3eb928c7	0.36163923
9	0xbf7670e4	-0.9626601
10	0xbf26e894	-0.65198636
11	0x3efdfe43	0.4960805
12	0xbefe3e52	-0.49656922
13	0x3f2009e0	0.6251507
14	0x3f33805e	0.7011775
15	0xbf266e11	-0.650117
16	0xbf473595	-0.77816135
17	0xbea74b64	-0.32674706
18	0x3e95fe07	0.2929537
19	0xbf272e1f	-0.6530475
20	0x3e83b3db	0.25723156
21	0xbf4c7140	-0.79860306
22	0x3f4398d9	0.764051
23	0x3f5574ae	0.83381164
24	0xbe9dd1ed	-0.30824223
25	0xbed1230a	-0.40847045
26	0xbf76bc84	-0.963814
27	0x3eba3c21	0.36374
28	0xbf459c6a	-0.77191794
29	0xbf03cf60	-0.51488304
30	0x3ee668e5	0.45001903
31	0xbef68134	-0.4814545
32	0x3db623c7	0.08893543
33	0xbe41718f	-0.18890975
34	0xbf23c718	-0.6397567
35	0xbec76377	-0.38943073
36	0x3d63cca7	0.055615094
37	0x3ed843b7	0.42239162
38	0xbf46b647	-0.77621883
39	0x3f29898e	0.66225517

layers.6.bias f4 [4]
0	0xbe5782e9	-0.21046032
1	0x3eca9e81	0.39574054
2	0x3e8da8ab	0.27667746
3	0xbede747b	-0.43448243
