GMMMLP-weights-isotropic.pth (torch, 4428 bytes, 8 tensors)

layers.0.weight f4 [10, 2]
00000000: c80f 1fbe f2b2 6bbe 6f6a 51bf 214e 303e
00000010: dd4b 0fbe e324 533f aa06 563f 98c2 40bf
00000020: c54e 3e3f 7b77 20bf e6d1 4ebf 38ba 163f
00000030: af66 2e3e 5352 35bf dd8d b0be e83a 3b3f
00000040: 6427 93be 7657 163f d714 303f 3070 34bf
-0.15533364 -0.23017481 -0.8180303 0.17217304 -0.13993783 0.8247816 0.8360392 -0.75296926
0.7433894 -0.6268231 -0.8078903 0.588779 0.17031358 -0.7082874 -0.34483233 0.7313676
-0.2874099 0.58727205 0.687818 -0.70483685

layers.0.bias f4 [10]
00000000: babb 17be 6dbc 23be 2542 0d3f bbd3 a13e
00000010: 6189 b4be a702 25bc 3b01 aa3e 90e9 2b3f
00000020: 6ae3 d23e 6893 4b3f
-0.14817706 -0.15989847 0.55179054 0.3160685 -0.35261062 -0.010071433 0.33204064 0.67153263
0.41189128 0.795218

layers.2.weight f4 [10, 10]
00000000: 1963 253d d258 863e e17e df3e 484d bb3d
00000010: 7400 c83e eddc a43d 6f09 983e bdb8 003f
00000020: 43bf 4f3e d1a9 c03c 09f0 18be a683 c83e
00000030: b55e 123e 7306 5b3e fe29 6abd be59 ab3e
00000040: 1e2b 4b3c 8361 a23e 3d4d f93e c419 de3e
00000050: 3e5c da3e 4218 c4be edef d6bd a081 8f3e
00000060: 833b 0d3f 2e09 123e c33d a43e c6e6 92be
00000070: 5869 003e d3eb 823e b583 e73d a163 04bf
00000080: 282f 57be 5443 c83d 0d1e 023f 4fc9 dabe
00000090: 562a bf3e 4eec 9f3d a60a 51bd 27e3 173d
000000a0: 923c a6be 0899 e13d 7e2b a03e f0a4 f1be
000000b0: b17c a6be d22d c13e 26cb 1a3d 1f42 983e
000000c0: 6d2e 883e afdf d3be 18b7 f73d bfb0 8cbe
000000d0: 4562 a6bc 7ae8 f43e 7a0b b63e 0dd4 66be
000000e0: 7925 823e 4e41 51bd fb46 b7be d218 083e
000000f0: 6c77 9f3c 591c c0be 599c 9cbd 07bc 063f
00000100: f8db bc3e 4010 01bf 493f ef3c 8abf 93be
00000110: 4ad8 73be 56cc c03e bbec 1bbb 80bc ac3e
00000120: 5759 cf3d 838f 96be c73f 86be a216 813e
00000130: 6734 3c3d 7eab fb3e 22fc 9b3e 8d64 96be
00000140: 9ade 0c3c 97e2 a6be 0b76 bb3d 8dfa 0e3f
00000150: fa28 0f3f 6c62 953d f061 a93e 6132 d8bd
00000160: bdf4 cabd b8a0 b63e 8e66 143e ccd9 f5bc
00000170: bb44 233d 8484 d33e e382 613e 2f8b d4be
00000180: 77bb 963e 5360 7e3b 30b3 15bd 5e96 133f
0.04037771 0.2623964 0.43651488 0.091455996 0.39062846 0.08049951 0.29694697 0.5028189
0.20287804 0.023518475 -0.14935316 0.3916294 0.1429394 0.21389179 -0.057168953 0.33466905
0.012400417 0.3171502 0.4869174 0.43379033 0.426485 -0.38299757 -0.10494981 0.28028584
0.5516893 0.14261314 0.3207837 -0.2869169 0.12540185 0.25570545 0.11304418 -0.5171452
-0.21014082 0.09778467 0.50827104 -0.4273171 0.37336987 0.078087434 -0.051035546 0.037081864
-0.32468086 0.110155165 0.31283182 -0.4719615 -0.32517007 0.3773027 0.037791394 0.29737946
0.2659792 -0.41381595 0.12095469 -0.27478597 -0.02031053 0.47833616 0.3555563 -0.22541828
0.25419214 -0.05108767 -0.3579634 0.13290718 0.019466124 -0.37521628 -0.076470084 0.52630657
0.36886573 -0.5041542 0.029204981 -0.2885707 -0.23812976 0.37655896 -0.0023792225 0.33737564
0.10124462 -0.29406366 -0.26220533 0.2521258 0.045948412 0.49154276 0.304658 -0.2937359
0.008597994 -0.3259475 0.09153374 0.5585106 0.559219 0.07294163 0.33082533 -0.10556484
-0.099099614 0.35669494 0.14492247 -0.03001108 0.03986047 0.4131204 0.22022586 -0.4151244
0.294399 0.0038814738 -0.03654784 0.5765132

layers.2.bias f4 [10]
00000000: f5f5 de3d f23f e53e e1da 643e b601 913e
00000010: 45ad e73e 0eec 3abe ac1d 0c3f 2720 3c3e
00000020: 5104 893d ceb1 b43e
0.10886756 0.4477535 0.2234912 0.28321618 0.45249382 -0.1825411 0.54732776 0.1837164
0.066902764 0.35291904

layers.4.weight f4 [10, 10]
00000000: 8549 273e 7d27 a53e ea19 2c3d 2bbe 843e
00000010: 674d 08bf 6e4b 5fbd 6f09 163f fc89 98bd
00000020: 5b32 113f 672b c03e df6d 953e eb44 7f3e
00000030: 6320 11bf 190f 66bd 4d56 213e 1a3c 4abe
00000040: 5493 07be 653b b83e e140 e3bd 3c65 55be
00000050: 8253 df3e 9063 053f 1346 90be 5f90 84be
00000060: 4b8b ed3e b47a 35be 483f 32be 5549 a33e
00000070: 40bc a0be e3f2 08bc 8ef5 d83e f54a e7b9
00000080: 5e49 4bbe 3ea5 c8be 0870 8d3d 5fac 143e
00000090: cdb4 a2be a720 103f 0b99 c5be 3445 fdbe
000000a0: 342c 9a3e 6e3e 373e 89be 0c3f da37 ed3e
000000b0: ec8d b6be d467 df3e b617 033f ce90 3fbe
000000c0: 0a53 2c3e f2dd 4f3e 7f44 e43e e0fc 9f3e
000000d0: bc12 b1be b2b8 f5be 89af ab3e 5fc2 babe
000000e0: 7bff c8be a211 8a3d d25a b2be 2e69 76bc
000000f0: 2f23 053f 3855 8b3d 4db6 edbe 811e 823d
00000100: f6e7 b23e a07a e3be acdb 7cbe 02ef c13e
00000110: 6726 28be 5e40 83be 16c8 2fbe ae07 4a3e
00000120: 41e1 3b3e d2a5 803e aa5f 92be f604 c53e
00000130: 81a2 f23e fe6e 98be 46a6 d03e 8fea 063f
00000140: 7298 8f3d dc9b 2bbe feb8 c83e ac19 d93e
00000150: 0ad6 3b3e ca09 083f 073e 813c 5650 b8bd
00000160: f7cf f13e c2da 783e 552a 003f fe92 013f
00000170: 2a9b f2be 3662 89bd a604 083f d061 dabe
00000180: 784b 06bf 68f8 193f 28b6 503d 6e30 cebe
0.16336639 0.3225669 0.0420169 0.25926337 -0.53243107 -0.054515295 0.58608145 -0.074481934
0.5671746 0.37533113 0.29185387 0.24928634 -0.56690043 -0.056166742 0.15755577 -0.1974949
-0.13239795 0.35982814 -0.11096359 -0.20839399 0.436184 0.52105045 -0.28178462 -0.25891396
0.46395335 -0.17722589 -0.17406952 0.31891885 -0.31393623 -0.00835869 0.42374843 -0.000441156
-0.19852206 -0.3918857 0.06906134 0.1451888 -0.31778565 0.56299824 -0.38593325 -0.4946686
0.3011185 0.17894909 0.54978234 0.46331674 -0.35655153 0.43633902 0.51208055 -0.18707582
0.16828552 0.20299509 0.44583508 0.31247616 -0.34584606 -0.47992474 0.3353236 -0.36476418
-0.39257416 0.067416444 -0.34834915 -0.015039725 0.5200681 0.068033636 -0.46428147 0.063534744
0.34942597 -0.44429493 -0.24693173 0.3787766 -0.164209 -0.25635046 -0.1716617 0.19729492
0.18347646 0.2512651 -0.2858861 0.38480347 0.47389606 -0.2977218 0.40751857 0.5270166
0.070114985 -0.16758674 0.39203638 0.424024 0.18343368 0.53139937 0.015776647 -0.08999698
0.47228977 0.243022 0.50064594 0.5061492 -0.47384006 -0.067081854 0.5313209 -0.4265275
-0.52458906 0.6014466 0.050954968 -0.40271324

layers.4.bias f4 [10]
00000000: 1a89 2f3e d4c4 e53e 49ba 633c f962 523e
00000010: 133d b13d e099 b93e ebc1 ec3e 1bb9 7b3e
00000020: 40a4 5a3d 23fb 213e
0.17142144 0.4487673 0.013899394 0.20545568 0.08654227 0.3625021 0.46241698 0.24582331
0.053379297 0.15818457

layers.6.weight f4 [2, 10]
00000000: 7fb5 93be bae9 8f3e 92ce c43e 6896 a03d
00000010: 74fa 1bbf dc92 003f a372 823d 825f 83be
00000020: 7b32 bcbe 7e84 123f 16c0 b43e e952 a3be
00000030: 04cf 83be aa44 efbe 7736 873e 8616 14bf
00000040: 084f 13bf 88de 063f ef4c e73e 079d 3dbd
-0.28849408 0.28108007 0.3843885 0.07841188 -0.60929036 0.5022409 0.063695215 -0.25658804
-0.36757264 0.5723342 0.353028 -0.31899193 -0.25743878 -0.46732074 0.2640874 -0.5784687
-0.5754247 0.52683306 0.45175883 -0.04629233

layers.6.bias f4 [2]
00000000: 4fb7 c53d 7180 9ebc
0.09654104 -0.019348355
